…
},{"cell_type":"markdown","source":["### Inferencia"],"metadata":{"id":"rGPsWi6ER7B4"}},{"cell_type":"code","source":[],"metadata":{"colab":{"base_uri":"https://localhost:8080/"},"id":"wtufNXDor1fT","executionInfo":{"status":"ok","timestamp":1713317940025,"user_tz":240,"elapsed":1417,"user":{"displayName":"Ricardo Jairo Díaz Barrón","userId":"11618817250784328553"}},"outputId":"d0f2f284-cbf7-47fc-b444-3138c09fc094"},"execution_count":null,"outputs":[{"output_type":"execute_result","data":{"text/plain":["EfficientNet(\n","  (features): Sequential(\n","    (0): Conv2dNormActivation(\n","      (0): Conv2d(3, 32, kernel_size=(3, 3), stride=(2, 2), padding=(1, 1), bias=False)\n","      (1): BatchNorm2d(32, eps=1e-05, momentum=0.1, affine=True, track_running_stats=True)\n","      (2): SiLU(inplace=True)\n","    )\n","    (1): Sequential(\n","      (0): MBConv(\n","        (block): Sequential(\n","          (0): Conv2dNormActivation(\n","            (0): Conv2d(32, 32, kernel_size=(3, 3), stride=(1, 1), padding=(1, 1), groups=32, bias=False)\n","            (1): BatchNorm2d(32, eps=1e-05, momentum=0.1, affine=True, track_running_stats=True)\n","            (2): SiLU(inplace=True)\n","          )\n","          (1): SqueezeExcitation(\n","            (avgpool): AdaptiveAvgPool2d(output_size=1)\n","            (fc1): Conv2d(32, 8, kernel_size=(1, 1), stride=(1, 1))\n","            (fc2): Conv2d(8, 32, kernel_size=(1, 1), stride=(1, 1))\n","            (activation): SiLU(inplace=True)\n","            (scale_activation): Sigmoid()\n","          )\n","          (2): Conv2dNormActivation(\n","            (0): Conv2d(32, 16, kernel_size=(1, 1), stride=(1, 1), bias=False)\n","            (1): BatchNorm2d(16, eps=1e-05, momentum=0.1, affine=True, track_running_stats=True)\n","          )\n","        )\n","        (stochastic_depth): StochasticDepth(p=0.0, mode=row)\n","      )\n","    )\n","    (2): Sequential(\n","      (0): MBConv(\n","        (block): Sequential(\n","          (0): Conv2dNormActivation(\n","            (0): Conv2d(16, 96, kernel_size=(1, 1), stride=(1, 1), bias=False)\n","            (1): BatchNorm2d(96, eps=1e-05, momentum=0.1, affine=True, track_running_stats=True)\n","            (2): SiLU(inplace=True)\n","          )\n","          (1): Conv2dNormActivation(\n","            (0): Conv2d(96, 96, kernel_size=(3, 3), stride=(2, 2), padding=(1, 1), groups=96, bias=False)\n","            (1): BatchNorm2d(96, eps=1e-05, momentum=0.1, affine=True, track_running_stats=True)\n","            (2): SiLU(inplace=True)\n","          )\n","          (2): SqueezeExcitation(\n","            (avgpool): AdaptiveAvgPool2d(output_size=1)\n","            (fc1): Conv2d(96, 4, kernel_size=(1, 1), stride=(1, 1))\n","            (fc2): Conv2d(4, 96, kernel_size=(1, 1), stride=(1, 1))\n","            (activation): SiLU(inplace=True)\n","            (scale_activation): Sigmoid()\n","          )\n","          (3): Conv2dNormActivation(\n","            (0): Conv2d(96, 24, kernel_size=(1, 1), stride=(1, 1), bias=False)\n","            (1): BatchNorm2d(24, eps=1e-05, momentum=0.1, affine=True, track_running_stats=True)\n","          )\n","        )\n","        (stochastic_depth): StochasticDepth(p=0.0125, mode=row)\n","      )\n","      (1): MBConv(\n","        (block): Sequential(\n","          (0): Conv2dNormActivation(\n","            (0): Conv2d(24, 144, kernel_size=(1, 1), stride=(1, 1), bias=False)\n","            (1): BatchNorm2d(144, eps=1e-05, momentum=0.1, affine=True, track_running_stats=True)\n","            (2): SiLU(inplace=True)\n","          )\n","          (1): Conv2dNormActivation(\n","            (0): Conv2d(144, 144, kernel_size=(3, 3), stride=(1, 1), padding=(1, 1), groups=144, bias=False)\n","            (1): BatchNorm2d(144, eps=1e-05, momentum=0.1, affine=True, track_running_stats=True)\n","            (2): SiLU(inplace=True)\n","          )\n","          (2): SqueezeExcitation(\n","            (avgpool): AdaptiveAvgPool2d(output_size=1)\n","            (fc1): Conv2d(144, 6, kernel_size=(1, 1), stride=(1, 1))\n","            (fc2): Conv2d(6, 144, kernel_size=(1, 1), stride=(1, 1))\n","            (activation): SiLU(inplace=True)\n","            (scale_activation): Sigmoid()\n","          )\n","          (3): Conv2dNormActivation(\n","            (0): Conv2d(144, 24, kernel_size=(1, 1), stride=(1, 1), bias=False)\n","            (1): BatchNorm2d(24, eps=1e-05, momentum=0.1, affine=True, track_running_stats=True)\n","          )\n","        )\n","        (stochastic_depth): StochasticDepth(p=0.025, mode=row)\n","      )\n","    )\n","    (3): Sequential(\n","      (0): MBConv(\n","        (block): Sequential(\n","          (0): Conv2dNormActivation(\n","            (0): Conv2d(24, 144, kernel_size=(1, 1), stride=(1, 1), bias=False)\n","            (1): BatchNorm2d(144, eps=1e-05, momentum=0.1, affine=True, track_running_stats=True)\n","            (2): SiLU(inplace=True)\n","          )\n","          (1): Conv2dNormActivation(\n","            (0): Conv2d(144, 144, kernel_size=(5, 5), stride=(2, 2), padding=(2, 2), groups=144, bias=False)\n","            (1): BatchNorm2d(144, eps=1e-05, momentum=0.1, affine=True, track_running_stats=True)\n","            (2): SiLU(inplace=True)\n","          )\n","          (2): SqueezeExcitation(\n","            (avgpool): AdaptiveAvgPool2d(output_size=1)\n","            (fc1): Conv2d(144, 6, kernel_size=(1, 1), stride=(1, 1))\n","            (fc2): Conv2d(6, 144, kernel_size=(1, 1), stride=(1, 1))\n","            (activation): SiLU(inplace=True)\n","            (scale_activation): Sigmoid()\n","          )\n","          (3): Conv2dNormActivation(\n","            (0): Conv2d(144, 40, kernel_size=(1, 1), stride=(1, 1), bias=False)\n","            (1): BatchNorm2d(40, eps=1e-05, momentum=0.1, affine=True, track_running_stats=True)\n","          )\n","        )\n","        (stochastic_depth): StochasticDepth(p=0.037500000000000006, mode=row)\n","      )\n","      (1): MBConv(\n","        (block): Sequential(\n","          (0): Conv2dNormActivation(\n","            (0): Conv2d(40, 240, kernel_size=(1, 1), stride=(1, 1), bias=False)\n","            (1): BatchNorm2d(240, eps=1e-05, momentum=0.1, affine=True, track_running_stats=True)\n","            (2): SiLU(inplace=True)\n","          )\n","          (1): Conv2dNormActivation(\n","            (0): Conv2d(240, 240, kernel_size=(5, 5), stride=(1, 1), padding=(2, 2), groups=240, bias=False)\n","            (1): BatchNorm2d(240, eps=1e-05, momentum=0.1, affine=True, track_running_stats=True)\n","            (2): SiLU(inplace=True)\n","          )\n","          (2): SqueezeExcitation(\n","            (avgpool): AdaptiveAvgPool2d(output_size=1)\n","            (fc1): Conv2d(240, 10, kernel_size=(1, 1), stride=(1, 1))\n","            (fc2): Conv2d(10, 240, kernel_size=(1, 1), stride=(1, 1))\n","            (activation): SiLU(inplace=True)\n","            (scale_activation): Sigmoid()\n","          )\n","          (3): Conv2dNormActivation(\n","            (0): Conv2d(240, 40, kernel_size=(1, 1), stride=(1, 1), bias=False)\n","            (1): BatchNorm2d(40, eps=1e-05, momentum=0.1, affine=True, track_running_stats=True)\n","          )\n","        )\n","        (stochastic_depth): StochasticDepth(p=0.05, mode=row)\n","      )\n","    )\n","    (4): Sequential(\n","      (0): MBConv(\n","        (block): Sequential(\n","          (0): Conv2dNormActivation(\n","            (0): Conv2d(40, 240, kernel_size=(1, 1), stride=(1, 1), bias=False)\n","            (1): BatchNorm2d(240, eps=1e-05, momentum=0.1, affine=True, track_running_stats=True)\n","            (2): SiLU(inplace=True)\n","          )\n","          (1): Conv2dNormActivation(\n","            (0): Conv2d(240, 240, kernel_size=(3, 3), stride=(2, 2), padding=(1, 1), groups=240, bias=False)\n","            (1): BatchNorm2d(240, eps=1e-05, momentum=0.1, affine=True, track_running_stats=True)\n","            (2): SiLU(inplace=True)\n","          )\n","          (2): SqueezeExcitation(\n","            (avgpool): AdaptiveAvgPool2d(output_size=1)\n","            (fc1): Conv2d(240, 10, kernel_size=(1, 1), stride=(1, 1))\n","            (fc2): Conv2d(10, 240, kernel_size=(1, 1), stride=(1, 1))\n","            (activation): SiLU(inplace=True)\n","            (scale_activation): Sigmoid()\n","          )\n","          (3): Conv2dNormActivation(\n","            (0): Conv2d(240, 80, kernel_size=(1, 1), stride=(1, 1), bias=False)\n","            (1): BatchNorm2d(80, eps=1e-05, momentum=0.1, affine=True, track_running_stats=True)\n","          )\n","        )\n","        (stochastic_depth): StochasticDepth(p=0.0625, mode=row)\n","      )\n","      (1): MBConv(\n","        (block): Sequential(\n","          (0): Conv2dNormActivation(\n","            (0): Conv2d(80, 480, kernel_size=(1, 1), stride=(1, 1), bias=False)\n","            (1): BatchNorm2d(480, eps=1e-05, momentum=0.1, affine=True, track_running_stats=True)\n","            (2): SiLU(inplace=True)\n","          )\n","          (1): Conv2dNormActivation(\n","            (0): Conv2d(480, 480, kernel_size=(3, 3), stride=(1, 1), padding=(1, 1), groups=480, bias=False)\n","            (1): BatchNorm2d(480, eps=1e-05, momentum=0.1, affine=True, track_running_stats=True)\n","            (2): SiLU(inplace=True)\n","          )\n","          (2): SqueezeExcitation(\n","            (avgpool): AdaptiveAvgPool2d(output_size=1)\n","            (fc1): Conv2d(480, 20, kernel_size=(1, 1), stride=(1, 1))\n","            (fc2): Conv2d(20, 480, kernel_size=(1, 1), stride=(1, 1))\n","            (activation): SiLU(inplace=True)\n","            (scale_activation): Sigmoid()\n","          )\n","          (3): Conv2dNormActivation(\n","            (0): Conv2d(480, 80, kernel_size=(1, 1), stride=(1, 1), bias=False)\n","            (1): BatchNorm2d(80, eps=1e-05, momentum=0.1, affine=True, track_running_stats=True)\n","          )\n","        )\n","        (stochastic_depth): StochasticDepth(p=0.07500000000000001, mode=row)\n","      )\n","      (2): MBConv(\n","        (block): Sequential(\n","          (0): Conv2dNormActivation(\n","            (0): Conv2d(80, 480, kernel_size=(1, 1), stride=(1, 1), bias=False)\n","            (1): BatchNorm2d(480, eps=1e-05, momentum=0.1, affine=True, track_running_stats=True)\n","            (2): SiLU(inplace=True)\n","          )\n","          (1): Conv2dNormActivation(\n","            (0): Conv2d(480, 480, kernel_size=(3, 3), stride=(1, 1), padding=(1, 1), groups=480, bias=False)\n","            (1): BatchNorm2d(480, eps=1e-05, momentum=0.1, affine=True, track_running_stats=True)\n","            (2): SiLU(inplace=True)\n","          )\n","          (2): SqueezeExcitation(\n","            (avgpool): AdaptiveAvgPool2d(output_size=1)\n","            (fc1): Conv2d(480, 20, kernel_size=(1, 1), stride=(1, 1))\n","            (fc2): Conv2d(20, 480, kernel_size=(1, 1), stride=(1, 1))\n","            (activation): SiLU(inplace=True)\n","            (scale_activation): Sigmoid()\n","          )\n","          (3): Conv2dNormActivation(\n","            (0): Conv2d(480, 80, kernel_size=(1, 1), stride=(1, 1), bias=False)\n","            (1): BatchNorm2d(80, eps=1e-05, momentum=0.1, affine=True, track_running_stats=True)\n","          )\n","        )\n","        (stochastic_depth): StochasticDepth(p=0.08750000000000001, mode=row)\n","      )\n","    )\n","    (5): Sequential(\n","      (0): MBConv(\n","        (block): Sequential(\n","          (0): Conv2dNormActivation(\n","            (0): Conv2d(80, 480, kernel_size=(1, 1), stride=(1, 1), bias=False)\n","            (1): BatchNorm2d(480, eps=1e-05, momentum=0.1, affine=True, track_running_stats=True)\n","            (2): SiLU(inplace=True)\n","          )\n","          (1): Conv2dNormActivation(\n","            (0): Conv2d(480, 480, kernel_size=(5, 5), stride=(1, 1), padding=(2, 2), groups=480, bias=False)\n","            (1): BatchNorm2d(480, eps=1e-05, momentum=0.1, affine=True, track_running_stats=True)\n","            (2): SiLU(inplace=True)\n","          )\n","          (2): SqueezeExcitation(\n","            (avgpool): AdaptiveAvgPool2d(output_size=1)\n","            (fc1): Conv2d(480, 20, kernel_size=(1, 1), stride=(1, 1))\n","            (fc2): Conv2d(20, 480, kernel_size=(1, 1), stride=(1, 1))\n","            (activation): SiLU(inplace=True)\n","            (scale_activation): Sigmoid()\n","          )\n","          (3): Conv2dNormActivation(\n","            (0): Conv2d(480, 112, kernel_size=(1, 1), stride=(1, 1), bias=False)\n","            (1): BatchNorm2d(112, eps=1e-05, momentum=0.1, affine=True, track_running_stats=True)\n","          )\n","        )\n","        (stochastic_depth): StochasticDepth(p=0.1, mode=row)\n","      )\n","      (1): MBConv(\n","        (block): Sequential(\n","          (0): Conv2dNormActivation(\n","            (0): Conv2d(112, 672, kernel_size=(1, 1), stride=(1, 1), bias=False)\n","            (1): BatchNorm2d(672, eps=1e-05, momentum=0.1, affine=True, track_running_stats=True)\n","            (2): SiLU(inplace=True)\n","          )\n","          (1): Conv2dNormActivation(\n","            (0): Conv2d(672, 672, kernel_size=(5, 5), stride=(1, 1), padding=(2, 2), groups=672, bias=False)\n","            (1): BatchNorm2d(672, eps=1e-05, momentum=0.1, affine=True, track_running_stats=True)\n","            (2): SiLU(inplace=True)\n","          )\n","          (2): SqueezeExcitation(\n","            (avgpool): AdaptiveAvgPool2d(output_size=1)\n","            (fc1): Conv2d(672, 28, kernel_size=(1, 1), stride=(1, 1))\n","            (fc2): Conv2d(28, 672, kernel_size=(1, 1), stride=(1, 1))\n","            (activation): SiLU(inplace=True)\n","            (scale_activation): Sigmoid()\n","          )\n","          (3): Conv2dNormActivation(\n","            (0): Conv2d(672, 112, kernel_size=(1, 1), stride=(1, 1), bias=False)\n","            (1): BatchNorm2d(112, eps=1e-05, momentum=0.1, affine=True, track_running_stats=True)\n","          )\n","        )\n","        (stochastic_depth): StochasticDepth(p=0.1125, mode=row)\n","      )\n","      (2): MBConv(\n","        (block): Sequential(\n","          (0): Conv2dNormActivation(\n","            (0): Conv2d(112, 672, kernel_size=(1, 1), stride=(1, 1), bias=False)\n","            (1): BatchNorm2d(672, eps=1e-05, momentum=0.1, affine=True, track_running_stats=True)\n","            (2): SiLU(inplace=True)\n","          )\n","          (1): Conv2dNormActivation(\n","            (0): Conv2d(672, 672, kernel_size=(5, 5), stride=(1, 1), padding=(2, 2), groups=672, bias=False)\n","            (1): BatchNorm2d(672, eps=1e-05, momentum=0.1, affine=True, track_running_stats=True)\n","            (2): SiLU(inplace=True)\n","          )\n","          (2): SqueezeExcitation(\n","            (avgpool): AdaptiveAvgPool2d(output_size=1)\n","            (fc1): Conv2d(672, 28, kernel_size=(1, 1), stride=(1, 1))\n","            (fc2): Conv2d(28, 672, kernel_size=(1, 1), stride=(1, 1))\n","            (activation): SiLU(inplace=True)\n","            (scale_activation): Sigmoid()\n","          )\n","          (3): Conv2dNormActivation(\n","            (0): Conv2d(672, 112, kernel_size=(1, 1), stride=(1, 1), bias=False)\n","            (1): BatchNorm2d(112, eps=1e-05, momentum=0.1, affine=True, track_running_stats=True)\n","          )\n","        )\n","        (stochastic_depth): StochasticDepth(p=0.125, mode=row)\n","      )\n","    )\n","    (6): Sequential(\n","      (0): MBConv(\n","        (block): Sequential(\n","          (0): Conv2dNormActivation(\n","            (0): Conv2d(112, 672, kernel_size=(1, 1), stride=(1, 1), bias=False)\n","            (1): BatchNorm2d(672, eps=1e-05, momentum=0.1, affine=True, track_running_stats=True)\n","            (2): SiLU(inplace=True)\n","          )\n","          (1): Conv2dNormActivation(\n","            (0): Conv2d(672, 672, kernel_size=(5, 5), stride=(2, 2), padding=(2, 2), groups=672, bias=False)\n","            (1): BatchNorm2d(672, eps=1e-05, momentum=0.1, affine=True, track_running_stats=True)\n","            (2): SiLU(inplace=True)\n","          )\n","          (2): SqueezeExcitation(\n","            (avgpool): AdaptiveAvgPool2d(output_size=1)\n","            (fc1): Conv2d(672, 28, kernel_size=(1, 1), stride=(1, 1))\n","            (fc2): Conv2d(28, 672, kernel_size=(1, 1), stride=(1, 1))\n","            (activation): SiLU(inplace=True)\n","            (scale_activation): Sigmoid()\n","          )\n","          (3): Conv2dNormActivation(\n","            (0): Conv2d(672, 192, kernel_size=(1, 1), stride=(1, 1), bias=False)\n","            (1): BatchNorm2d(192, eps=1e-05, momentum=0.1, affine=True, track_running_stats=True)\n","          )\n","        )\n","        (stochastic_depth): StochasticDepth(p=0.1375, mode=row)\n","      )\n","      (1): MBConv(\n","        (block): Sequential(\n","          (0): Conv2dNormActivation(\n","            (0): Conv2d(192, 1152, kernel_size=(1, 1), stride=(1, 1), bias=False)\n","            (1): BatchNorm2d(1152, eps=1e-05, momentum=0.1, affine=True, track_running_stats=True)\n","            (2): SiLU(inplace=True)\n","          )\n","          (1): Conv2dNormActivation(\n","            (0): Conv2d(1152, 1152, kernel_size=(5, 5), stride=(1, 1), padding=(2, 2), groups=1152, bias=False)\n","            (1): BatchNorm2d(1152, eps=1e-05, momentum=0.1, affine=True, track_running_stats=True)\n","            (2): SiLU(inplace=True)\n","          )\n","          (2): SqueezeExcitation(\n","            (avgpool): AdaptiveAvgPool2d(output_size=1)\n","            (fc1): Conv2d(1152, 48, kernel_size=(1, 1), stride=(1, 1))\n","            (fc2): Conv2d(48, 1152, kernel_size=(1, 1), stride=(1, 1))\n","            (activation): SiLU(inplace=True)\n","            (scale_activation): Sigmoid()\n","          )\n","          (3): Conv2dNormActivation(\n","            (0): Conv2d(1152, 192, kernel_size=(1, 1), stride=(1, 1), bias=False)\n","            (1): BatchNorm2d(192, eps=1e-05, momentum=0.1, affine=True, track_running_stats=True)\n","          )\n","        )\n","        (stochastic_depth): StochasticDepth(p=0.15000000000000002, mode=row)\n","      )\n","      (2): MBConv(\n","        (block): Sequential(\n","          (0): Conv2dNormActivation(\n","            (0): Conv2d(192, 1152, kernel_size=(1, 1), stride=(1, 1), bias=False)\n","            (1): BatchNorm2d(1152, eps=1e-05, momentum=0.1, affine=True, track_running_stats=True)\n","            (2): SiLU(inplace=True)\n","          )\n","          (1): Conv2dNormActivation(\n","            (0): Conv2d(1152, 1152, kernel_size=(5, 5), stride=(1, 1), padding=(2, 2), groups=1152, bias=False)\n","            (1): BatchNorm2d(1152, eps=1e-05, momentum=0.1, affine=True, track_running_stats=True)\n","            (2): SiLU(inplace=True)\n","          )\n","          (2): SqueezeExcitation(\n","            (avgpool): AdaptiveAvgPool2d(output_size=1)\n","            (fc1): Conv2d(1152, 48, kernel_size=(1, 1), stride=(1, 1))\n","            (fc2): Conv2d(48, 1152, kernel_size=(1, 1), stride=(1, 1))\n","            (activation): SiLU(inplace=True)\n","            (scale_activation): Sigmoid()\n","          )\n","          (3): Conv2dNormActivation(\n","            (0): Conv2d(1152, 192, kernel_size=(1, 1), stride=(1, 1), bias=False)\n","            (1): BatchNorm2d(192, eps=1e-05, momentum=0.1, affine=True, track_running_stats=True)\n","          )\n","        )\n","        (stochastic_depth): StochasticDepth(p=0.1625, mode=row)\n","      )\n","      (3): MBConv(\n","        (block): Sequential(\n","          (0): Conv2dNormActivation(\n","            (0): Conv2d(192, 1152, kernel_size=(1, 1), stride=(1, 1), bias=False)\n","            (1): BatchNorm2d(1152, eps=1e-05, momentum=0.1, affine=True, track_running_stats=True)\n","            (2): SiLU(inplace=True)\n","          )\n","          (1): Conv2dNormActivation(\n","            (0): Conv2d(1152, 1152, kernel_size=(5, 5), stride=(1, 1), padding=(2, 2), groups=1152, bias=False)\n","            (1): BatchNorm2d(1152, eps=1e-05, momentum=0.1, affine=True, track_running_stats=True)\n","            (2): SiLU(inplace=True)\n","          )\n","          (2): SqueezeExcitation(\n","            (avgpool): AdaptiveAvgPool2d(output_size=1)\n","            (fc1): Conv2d(1152, 48, kernel_size=(1, 1), stride=(1, 1))\n","            (fc2): Conv2d(48, 1152, kernel_size=(1, 1), stride=(1, 1))\n","            (activation): SiLU(inplace=True)\n","            (scale_activation): Sigmoid()\n","          )\n","          (3): Conv2dNormActivation(\n","            (0): Conv2d(1152, 192, kernel_size=(1, 1), stride=(1, 1), bias=False)\n","            (1): BatchNorm2d(192, eps=1e-05, momentum=0.1, affine=True, track_running_stats=True)\n","          )\n","        )\n","        (stochastic_depth): StochasticDepth(p=0.17500000000000002, mode=row)\n","      )\n","    )\n","    (7): Sequential(\n","      (0): MBConv(\n","        (block): Sequential(\n","          (0): Conv2dNormActivation(\n","            (0): Conv2d(192, 1152, kernel_size=(1, 1), stride=(1, 1), bias=False)\n","            (1): BatchNorm2d(1152, eps=1e-05, momentum=0.1, affine=True, track_running_stats=True)\n","            (2): SiLU(inplace=True)\n","          )\n","          (1): Conv2dNormActivation(\n","            (0): Conv2d(1152, 1152, kernel_size=(3, 3), stride=(1, 1), padding=(1, 1), groups=1152, bias=False)\n","            (1): BatchNorm2d(1152, eps=1e-05, momentum=0.1, affine=True, track_running_stats=True)\n","            (2): SiLU(inplace=True)\n","          )\n","          (2): SqueezeExcitation(\n","            (avgpool): AdaptiveAvgPool2d(output_size=1)\n","            (fc1): Conv2d(1152, 48, kernel_size=(1, 1), stride=(1, 1))\n","            (fc2): Conv2d(48, 1152, kernel_size=(1, 1), stride=(1, 1))\n","            (activation): SiLU(inplace=True)\n","            (scale_activation): Sigmoid()\n","          )\n","          (3): Conv2dNormActivation(\n","            (0): Conv2d(1152, 320, kernel_size=(1, 1), stride=(1, 1), bias=False)\n","            (1): BatchNorm2d(320, eps=1e-05, momentum=0.1, affine=True, track_running_stats=True)\n","          )\n","        )\n","        (stochastic_depth): StochasticDepth(p=0.1875, mode=row)\n","      )\n","    )\n","    (8): Conv2dNormActivation(\n","      (0): Conv2d(320, 1280, kernel_size=(1, 1), stride=(1, 1), bias=False)\n","      (1): BatchNorm2d(1280, eps=1e-05, momentum=0.1, affine=True, track_running_stats=True)\n","      (2): SiLU(inplace=True)\n","    )\n","  )\n","  (avgpool): AdaptiveAvgPool2d(output_size=1)\n","  (classifier): Sequential(\n","    (0): Dropout(p=0.2, inplace=True)\n","    (1): Linear(in_features=1280, out_features=2, bias=True)\n","  )\n",")"]},"metadata":{},"execution_count":8}]},{"cell_type":"code","source":["import torchvision.transforms as transforms"],"metadata":{"id":"kJCFTGF4wP5A","executionInfo":{"status":"ok","timestamp":1713388146019,"user_tz":240,"elapsed":399,"user":{"displayName":"Ricardo Jairo Díaz Barrón","userId":"11618817250784328553"}}},"execution_count":5,"o
…
